android/tflite/app/src/main/assets/20-20_120_1_0.01_0.95.tflite (tflite, 32064 bytes, 6 tensors)

dense/MatMul_bias f4 [20]
00000000: 029c ae3d 3fc3 9dbd 7914 c1bd 1206 cbbd
00000010: 9c01 133e 012f 1abd be03 57bd f1ea a9bd
00000020: 252e b6bd f622 3c3e d3b7 85bd 651a a6bd
00000030: 301a 80bd 6d5e b0bd 8939 1a3e 4102 40bd
00000040: 1f2c 0abe 88ec 90bd acf5 8ebd 745e aabd
0.0852585 -0.07703256 -0.09427733 -0.09913267 0.14356083 -0.037642483 -0.052493803 -0.08296765
-0.0889552 0.18372712 -0.06529202 -0.08110503 -0.06254995 -0.0861176 0.1506101 -0.04687715
-0.13493393 -0.07076365 -0.06980452 -0.08318797

dense/kernel/transpose f4 [20, 360]
00000000: a45d 08bc fb9f 2bbd 34c5 063d 1dc6 96bd
00000010: ada8 3d3d 8b74 72bb 892d 5b39 71fc c1bd
00000020: b338 3b3b 63dd 79bc fd27 bfbd ae91 653d
00000030: da4d 0b3d d940 833d f1c6 333d 1e4c 633c
00000040: 8da8 88bd 3440 cd3d 9ec1 943d 748e 6dbd
00000050: 332a 8ebd 6a16 dfbb 5a11 763c fc27 8fbd
00000060: 0fbd e03d 3796 603d 1e3c 053e 75fd 4c3d
00000070: 85e2 a73b a086 02bc 4be4 13bc 2ea7 59bb
00000080: 0a12 cabd 5277 523d f778 72bd 2247 9ebc
00000090: 5272 bdbd 2444 933d da9d 03be b826 df3d
000000a0: c18b 5b3d c63a 943d 9b66 9fbd d37e debc
000000b0: 8eab 3abd 79a3 b33d e0b2 433c 6644 4fbd
000000c0: 1c18 873d e096 ff3d e2da a8bd 4225 42bd
000000d0: 0fe6 8bbb 503d 533c 5d4b 883c 011d 57bd
000000e0: c83a eabd d983 8b3d ca4e b1bc 8b8a 8abd
000000f0: 1427 213d a479 8d3d 4a09 86bd ac3f 473d
00000100: 7811 a4bd abec 26be 9cbe 673d b49e 9fbc
00000110: 78ca b4bc 0e7b 66bc 912e d9ba 214b 3bbe
00000120: 013f 57bd 71ae 38bd c264 2ebd 5fb1 ad3d
00000130: bf54 12bc 73d7 1fbe 94c3 a33d 233c 643d
00000140: 3433 89bc e3ef 91bd 9499 003d ad05 b3bb
00000150: 68e1 93bc df67 6abd c2c2 26be 09c9 613d
00000160: 7c53 743d 51db 1dbe 19f3 8e3d 3c6b 97bd
00000170: 07a9 bd3d 1bd7 6d3d d5d6 a23d d84a cebd
00000180: 0c6f 32bc 498e 1c3d e7e4 08be e7e3 dabd
00000190: 7849 a4bd 8c2a f33c 9488 dd3d 817b 0dbd
000001a0: ed5a 59bd facb b03a 4190 843d b029 693d
000001b0: cff8 163d ef6c c03d e5df ac3d 69a0 98bd
000001c0: afff febc 6da1 28bd e3b2 873d b05e 4c3a
000001d0: e00b ddbc c423 2ebd 9c50 913c d76b f63d
000001e0: 89b1 30bd 6be5 5b3d b995 293d 4f12 1c3c
000001f0: db68 b5bd 14d4 6a3d d3c0 133d 8981 ed3d
00000200: 52a5 ae3d 7f7d a1bd 3a7e b9bc 3beb a13d
00000210: 6296 dbbc b819 55bd 8904 6dbc abe5 a43d
00000220: 58b4 08bd d43a 2d3e fb8b a8bd aba7 a9bc
00000230: dada 0a3e 069d d13d 50dc bf3d 777d f73d
00000240: 02b6 c43d 5069 86bd bd79 023e 1bea fdbd
00000250: b31b 363d f8a9 743d bc50 aa3d d407 eabd
00000260: b0a3 e73d a067 47bd 0b3c 8d3d 12c8 673d
00000270: a751 073e 4693 ab3d d61d 2a3e 9296 cdbd
00000280: 83b2 92bd b179 d13d 5452 883d acad b9bd
00000290: d089 8d3d b0d6 32bd b6dd d23d 270a a63d
000002a0: c774 d03d fe75 e0bd af80 7d3d c50e 533d
000002b0: ae6f 8b3d be0d ba3d a5e6 823c e3cb 6a3d
000002c0: 590a db3d 8066 60bd 5ba0 02bd c20b 5ebd
000002d0: 8f10 843d 0140 9a3b d443 4dbd 5217 d3bd
000002e0: f57b 7d3c 9ff9 303d 6fd0 613d 2ef9 033c
000002f0: 1606 0c3d e62a c9bc 1706 793b 5197 79bd
00000300: ee57 b7bd d415 afbb b3f9 7ebd db0b c43b
00000310: 6c1f 09bd 8456 40bb c977 603d fe27 b93d
00000320: 6e46 8bbd a302 86bd 75d0 cabd a216 74bd
00000330: 0dd4 aa3c 369b 343d 3b4a f8bc d23c a1bb
00000340: cf84 063d 112a 9fbd 76fc ac3d 5360 5e3d
00000350: 5fb7 8bbd 1f97 2fbb 398a 9fbd d99e 06be
00000360: 4420 a9bd 0293 af3c 5f03 cabc 8cc6 c7ba
00000370: 43c9 863d 6a4a 7fbd 324d df3d d903 4dbc
00000380: 60ba 37bc 7ccf afbd cd03 3fbb dde7 10be
00000390: eeec 3fbc 32bc b0bd 4972 a13d 08fc 113d
000003a0: feb0 9c3d d678 06be 5ad2 813c bc03 21bd
000003b0: 377e 04bd 4e7e a7bc 25b3 903b e4a3 eebd
000003c0: 0df6 b1bc c94f 273b 1f66 c9bb 5c47 683d
000003d0: edd1 7c3d b46b eebd d95b 9a3c aa43 8bbc
000003e0: 5471 80bc f3ba 8fbd ef24 543d d39e 5b3b
000003f0: 8308 f1bc 8310 653d ba13 69bd f414 983d
-0.008323107 -0.041900616 0.03290291 -0.07362006 0.04630344 -0.0036995735 0.0002090243 -0.094719775
0.002856773 -0.015250537 -0.09333799 0.056047134 0.034009792 0.06408853 0.043890897 0.013873128
-0.066727735 0.100220114 0.07263492 -0.057997182 -0.069416426 -0.006808092 0.015018785 -0.06990048
0.1097356 0.054830756 0.13011214 0.050046403 0.005123439 -0.007966667 -0.009026597 -0.003321122
-0.09866722 0.051383324 -0.059197392 -0.019321028 -0.092503205 0.07190731 -0.12853184 0.10896057
0.053600077 0.07237773 -0.07783242 -0.027160084 -0.045573764 0.08771414 0.011944503 -0.05060234
0.065963954 0.12479949 -0.082448736 -0.047398813 -0.0042693685 0.012893036 0.016637499 -0.052517895
-0.11436993 0.06812257 -0.021644015 -0.06764706 0.03934391 0.06907967 -0.065447405 0.048644707
-0.080111444 -0.16301219 0.056578264 -0.019484855 -0.0220692 -0.014067424 -0.0016569664 -0.18290378
-0.05255032 -0.045088235 -0.04257656 0.084810965 -0.008931338 -0.15609531 0.07996288 0.055721413
-0.016748048 -0.07125833 0.031396464 -0.005463323 -0.018051818 -0.057227965 -0.16285232 0.055123363
0.05964993 -0.15415694 0.06979961 -0.073935 0.09260755 0.05806647 0.07951132 -0.10072869
-0.010890733 0.03822163 -0.1336857 -0.10688 -0.080218256 0.029683374 0.10817066 -0.03454161
-0.05306523 0.0013488524 0.06472827 0.056924522 0.036858376 0.093957774 0.08441142 -0.07452471
-0.031127779 -0.041169573 0.06625917 0.0007796092 -0.026983202 -0.042514578 0.017738633 0.120322876
-0.04313806 0.053685587 0.041402552 0.0095258495 -0.0885789 0.05733116 0.036072563 0.115969725
0.08527626 -0.078852646 -0.022643197 0.07906195 -0.026805107 -0.05202648 -0.014466413 0.08051618
-0.033375114 0.16916972 -0.08229824 -0.020709833 0.13560048 0.10235028 0.09368193 0.120844774
0.09605028 -0.065630555 0.12741752 -0.12398168 0.04446001 0.059732407 0.0831618 -0.11427274
0.11310518 -0.04868281 0.06896218 0.056587286 0.13214742 0.083776996 0.16612944 -0.10038485
-0.07162955 0.10228289 0.06656328 -0.090663284 0.06911051 -0.043661773 0.10296194 0.08107405
0.101785235 -0.10960005 0.0618903 0.051527757 0.068084106 0.09084652 0.01597912 0.057323348
0.10695333 -0.05478525 -0.03189121 -0.054210432 0.06448471 0.004707337 -0.050113514 -0.10307182
0.015471448 0.043206807 0.05513042 0.008055015 0.03418549 -0.024556588 0.0037998015 -0.060935322
-0.08952318 -0.0053431783 -0.06224985 0.0059828586 -0.03347723 -0.0029348442 0.054801736 0.09040831
-0.06800543 -0.06543472 -0.09903041 -0.059591897 0.020853067 0.044093333 -0.030308833 -0.0049205804
0.0328415 -0.077716954 0.084465906 0.05429108 -0.06822085 -0.0026792956 -0.07790036 -0.13146533
-0.08258107 0.021432403 -0.02465981 -0.0015241667 0.065813564 -0.062326826 0.10903396 -0.012513124
-0.011213869 -0.085844964 -0.0029146553 -0.14150949 -0.011714203 -0.086296454 0.07883126 0.035640746
0.07650946 -0.13132033 0.015847374 -0.039310202 -0.03234693 -0.020445969 0.004415887 -0.116523534
-0.021723771 0.0025529733 -0.006146207 0.05670868 0.06172364 -0.116416365 0.018842625 -0.017000038
-0.015679039 -0.070180796 0.051793035 0.0033511415 -0.029423004 0.05592395 -0.05690358 0.074258715

dense_1/MatMul_bias f4 [20]
00000000: dec8 5d3d 0b54 0dbe d525 d0bb 79b2 443d
00000010: 8be5 373c c9d0 d13e 269c 7cbd a078 ae3e
00000020: 056e e4bc dc9b c13e 2f31 613c 0d1d 12bd
00000030: 895a e4bc 882d 903e a6b8 913e ad46 883d
00000040: 84a3 d23d 77f3 cbba 3573 2a3d c436 cb3e
0.05414664 -0.13801591 -0.006352166 0.048021767 0.011224161 0.40979603 -0.061672352 0.34076405
-0.027884493 0.37814224 0.013744636 -0.035672236 -0.027875202 0.28159738 0.28461188 0.06654105
0.102850944 -0.0015560229 0.041613776 0.3969022

dense_1/kernel/transpose f4 [20, 20]
00000000: 2eb7 33be 681f be3e 9e3f b93e 6a84 623e
00000010: 1446 cdbd 0cd2 97be baa3 c63e a237 823d
00000020: f687 bb3e 2fcd cabd 3b61 3b3e 6bdd de3e
00000030: 6b21 00be 8da1 39bc d7a5 9dbd 917e 01be
00000040: 5e92 2abe 2f0c a7be c4b6 da3e 2cbf ce3c
00000050: e45f d53c 3054 0a3f 9970 123e 5698 053f
00000060: fe81 3c3e f529 3dbc 3acf 133f f75c c83e
00000070: 6373 003e 9c0d 9d3e ba09 983d 1697 35be
00000080: fe2f fbbd 22d3 863e 7349 183e 2104 123d
00000090: 8c1f 5dbe 8647 f23d 80de d6bd bae2 ec3e
000000a0: d193 92be 31e7 023f 0095 46be 6112 fb3e
000000b0: 1458 f3bd 7b32 0fbd 88e8 d33d db44 c83e
000000c0: a6f7 013e dc42 a63d 70f4 e8bd c596 98bd
000000d0: 4742 293d 6f7a b83e 0c06 403e 94c1 9c3e
000000e0: 867f 8fbe 85b7 6b3e 6ae5 053f 63c8 693e
000000f0: 9dbf abbe f262 9c3e c57b ec3e 0784 303e
00000100: f20d b73e e35f ca3e 8379 a73d 68ee aa3e
00000110: 7e47 823d 5f73 06be 6c9d 7e3e 3b0b b33e
00000120: 89a8 3c3d 334c 033f 8bba 1fbe 49f6 4d3e
00000130: f789 d8bd f328 9cbd 8117 853e c872 033f
00000140: 7078 573d 0f2f 603d 0528 af3e ddd4 f53d
00000150: 0696 8cbd 7760 36be 628f b9bc 1055 f23e
00000160: b0e4 ac3e 713b a33e f529 2f3d 9524 4fbe
00000170: a1f0 20be 8e81 5f3c f60e 84be 1d9b 78be
00000180: 231f 143e 1096 b43e d5e4 4d3d e144 6c3e
00000190: a90d 41be af56 af3d b2bc 48be 9a05 d7bd
000001a0: 4e63 2e3d 7701 b9be 6fd3 9bbe 9ba3 74be
000001b0: c086 7bbd 17c8 093e 713e efbe 8b78 5abe
000001c0: 770d 02be 184d 8bbe ac84 3d3d d124 b6be
000001d0: a036 b3be 6de9 89be c737 d2be 6090 86be
000001e0: 520f 85bd dc64 cc3e 79e7 623d aa07 52be
000001f0: 8e8a 793c 2ab0 6c3b c011 30bd da12 de3d
00000200: a3a1 12be fc2f 803e fd9c cd3e 178e 8a3e
00000210: e1d4 d23d f87c fb3e c960 7a3b 5b95 923e
00000220: e21b 96be 14ea 9b3e b54a 3cbe 2a77 a63e
00000230: 3593 b33e 1925 0abe 8896 aabe c760 94be
00000240: f7b8 babd 0da6 b3bd 6fb6 e7be 8a03 87be
00000250: 1282 a4be 9df3 923e 52e4 35be eba4 a1be
00000260: a61f b0be dc17 c2be a760 333e daed c2be
00000270: fa17 35bd 3674 d5be 4aec 66be 4769 153d
00000280: c47c 90be f685 89bd fd01 f1bd 712f ea3e
00000290: 6ffc 343e 16ae 04be b715 91be 588c 4a3e
000002a0: 85aa bd3d 7fe5 d93d 702c bdbc 6947 f63e
000002b0: f24e fb3e 4f08 eabd 6d90 3dbd 10c7 c7bd
000002c0: 1971 1cbe aff9 813e 3ff4 54bd 603c fcbd
000002d0: 2daa 563e fb21 ccbc bb29 e3be 3abf b4bd
000002e0: c4eb d43e 7c71 fcbe 1bc6 66be 837c cebe
000002f0: 0afe 06bf a251 ca3e 741b a9be 1bf8 d5be
00000300: ded5 e4be 059f bdbe bd59 123d 30c7 bebd
00000310: 2a8f 06bf 8d1d 73be 4124 cbbe 5e13 edbe
00000320: 9090 a8bd 34f6 bf3e a121 d63d f019 173e
00000330: f405 b03c 9211 63bd 4e36 a8be e7e5 a3bb
00000340: 7ecf 233e ce00 8abd b6a0 413e ea0c a9bd
00000350: 02c3 693e f714 80be 9f70 023a f9a0 843e
00000360: 52f8 8ebd d3a8 f4bd fbeb 36be 276e 1cbe
00000370: cca1 6cbe 4d54 903e 74eb 24be 2d23 dbbd
00000380: 44d9 883e 4a00 2b3c 1d9e 153f a0c7 da3e
00000390: 28cc 4fbe 7785 90be ca71 47be 9b04 593d
000003a0: 1b9a 973d 63e1 733e a4c9 8d3e 4be9 293e
000003b0: 4682 bebd 3503 24bd 397c f43d 3ac8 d4bb
000003c0: b943 113e 2368 d03e 02bb 4dbe 4d68 0c3e
000003d0: 149c 8cbe 6203 6dbe 006d 02be 9cd1 ad3e
000003e0: 9f11 353e c475 703e ad66 353e 2b0b f83d
000003f0: 3862 6d3c 406e 9d3e 9fe3 973c 49d1 d93e
-0.17550346 0.37133336 0.3618135 0.22120824 -0.10023132 -0.2965244 0.38796788 0.06358267
0.36627167 -0.09902417 0.18298809 0.43528304 -0.12512748 -0.011330021 -0.07697647 -0.12645938
-0.16657397 -0.32626483 0.42717564 0.025237642 0.0260467 0.5403471 0.14300765 0.5218557
0.18408963 -0.011545648 0.5773808 0.39133427 0.12544017 0.30674446 0.0742373 -0.17733416
-0.12265013 0.26332957 0.14871769 0.03564847 -0.21594065 0.11830048 -0.10491657 0.4626673
-0.286284 0.5113402 -0.19392776 0.4903746 -0.11882034 -0.03496025 0.10347086 0.39115033
0.12692127 0.08118221 -0.11374748 -0.07450632 0.041322973 0.3603091 0.18752307 0.30616438
-0.2802698 0.23019226 0.52303183 0.22830348 -0.33544627 0.3054424 0.4618818 0.17237864
0.35752827 0.3952628 0.081774734 0.33385015 0.06361292 -0.13129948 0.24864739 0.34969506
0.046059165 0.51288146 -0.15598504 0.20113482 -0.1057319 -0.07624998 0.25994495 0.5134702
0.052605093 0.05473238 0.3421022 0.12003491 -0.06864552 -0.17810236 -0.022651378 0.47330523
0.33768225 0.31881288 0.042764623 -0.20228799 -0.15716793 0.013641728 -0.25792664 -0.24277921
0.14465003 0.3527074 0.05026706 0.2307315 -0.18852867 0.085614555 -0.19603232 -0.10499115
0.042575173 -0.3613393 -0.3043475 -0.23890536 -0.061407804 0.13455234 -0.46727327 -0.21335046
-0.12700449 -0.27207255 0.046269104 -0.35574964 -0.35002613 -0.26935902 -0.4105818 -0.26282024
-0.06497063 0.399207 0.05539653 -0.20510736 0.015230788 0.0036115744 -0.042985678 0.108434394
-0.14319472 0.2503661 0.40158835 0.2706153 0.1029451 0.4911878 0.003820466 0.28629574
-0.29318148 0.30452025 -0.18387873 0.3251279 0.35073248 -0.13490714 -0.3331797 -0.28980085
-0.091173105 -0.08771906 -0.45256373 -0.26369888 -0.32130486 0.28701487 -0.17762879 -0.31571135
-0.34399146 -0.37908828 0.17517339 -0.3807209 -0.04421232 -0.41690224 -0.22551075 0.036477353
-0.2822019 -0.06715004 -0.11767957 0.4573932 0.17674421 -0.12957034 -0.2833688 0.197801
0.0926104 0.10639476 -0.023092479 0.48101357 0.49083668 -0.11427366 -0.046280313 -0.09754765
-0.15277518 0.25385806 -0.051990744 -0.12316203 0.20963354 -0.024918547 -0.44367775 -0.08825536
0.41586125 -0.49305332 -0.22536509 -0.4032937 -0.5273138 0.39515406 -0.33028758 -0.41790852
-0.44694418 -0.37035385 0.035730112 -0.09315336 -0.525622 -0.23741741 -0.39676097 -0.46303838
-0.08230698 0.37492526 0.10455633 0.14755988 0.021487214 -0.05543668 -0.3285393 -0.0050017717
0.1599712 -0.06738435 0.18908963 -0.08254416 0.22828296 -0.25015995 0.00049758883 0.25904062
-0.06980957 -0.11946263 -0.17863457 -0.15276395 -0.23108596 0.28189316 -0.16105443 -0.107000686
0.2672826 0.010437081 0.58444387 0.42730427 -0.20292723 -0.28226826 -0.19477001 0.052982908
0.0740244 0.23816447 0.27692902 0.165929 -0.093021914 -0.04004212 0.11937756 -0.0064935954
0.1418599 0.4070445 -0.20090869 0.13711663 -0.27462828 -0.23145822 -0.12736893 0.33948982
0.17682503 0.23482424 0.17714949 0.12111505 0.014488749 0.30748177 0.018541155 0.42542484

dense_2/MatMul_bias f4 [2]
00000000: 40a0 143e 3ea0 14be
0.14514256 -0.14514253

dense_2/kernel/transpose f4 [2, 20]
00000000: ac2b fcbe b148 22bf e463 19bf cefd a9be
00000010: befb 99be 2fae 523f b1db f8be 08b9 1c3f
00000020: 3ce0 23bf f5d9 8e3f 6041 5dbe c020 24be
00000030: 74a0 8ebe e22c 413f 65ca 053f 34b3 62bd
00000040: 7cf5 2cbe de82 ebbe b0b9 35be c24e 933f
00000050: b40d a73e 76aa 89bb 7967 0f3e 4003 0c3d
00000060: 5cc8 e7bd fc30 78bf c0db fb3e 26ef 77bf
00000070: 8e46 003f 46cf 78bf adf3 1c3f 66e3 243f
00000080: 462b f53e 3fd4 0abf b37e a8be 89de 1f3f
00000090: 669f c83e 1aa7 2ebc 9316 163f 07ea 64bf
-0.4925207 -0.6339217 -0.59918046 -0.3320145 -0.30074877 0.82297033 -0.4860511 0.61219835
-0.6401403 1.1160265 -0.2160697 -0.16028118 -0.2785679 0.7545911 0.52261955 -0.055346683
-0.1689052 -0.4599828 -0.17746615 1.150841 0.32627642 -0.0042012287 0.14004315 0.034182787
-0.113175124 -0.96949744 0.49191093 -0.96849287 0.5010766 -0.97191274 0.6130932 0.6440948
0.47884578 -0.5423011 -0.32909164 0.62448937 0.3918411 -0.010659957 0.58628196 -0.894196
